models/simple_cnn.pth (torch, 445301 bytes, 20 tensors)

layer1.0.weight f4 [16, 1, 3, 3]
00000000: 379f 1fbe b2cc c1be a105 ebbd 6626 72be
00000010: 7574 f93d 3d6c 813e 7a7a cebe f39c b73d
00000020: 2e65 363e 820d ba3c 147f 953e d46e 5b3e
00000030: 86d5 b43e 0ac7 94bd 354a e5bc de9b b53e
00000040: 2534 19be 6374 cebd 7d40 ecbd 4054 ae3c
00000050: 6e33 3c3d bec3 033e c556 8e3e 589b 9a3e
00000060: 3e21 a4be 3044 9bbe 07a2 acbe c87a 253e
00000070: d961 223d dd1a 6bbe f6a0 a23b 10fe d43e
00000080: 86b2 13be 3b51 b6be b12f 9a3e 12ea f53d
00000090: 3c3b 313e 1367 e4be 9163 b73d 2044 5a3e
000000a0: 52ee d4bc d7b3 0dbe d805 88bd 13ab cb3e
000000b0: f2c3 b43e 3aed c93d 8fae 3dbe 6c44 7abe
000000c0: 7fd4 cd3e a804 82be 8b96 1ebe 85d9 e73e
000000d0: a764 71be 0aca 6d3e a4ae 223e 5051 663e
000000e0: c3a2 ee3c 513d adbc 6b54 073e 59c3 603e
000000f0: 3c16 c1be 1349 8bbe beb3 a83d 6263 f9bd
00000100: bc85 a5be 14bc 4cbe 090d 6f3e 1c4d 843e
00000110: 0342 b9be 80bf 10be a295 a63e d85f 06be
00000120: b230 94be aaba 453e 6fab 16be f604 323e
00000130: 0313 303e ea09 9bbe 3ac3 8d3e 9a7a 8f3d
00000140: b52b c1be 24a7 6c3d 0eea 3d3e 1d1b 59be
00000150: b78f 2cbd 6236 01bf 187f 44be f623 9fbe
00000160: f644 293d 3bf5 7b3e 7e59 3f3e fd21 aa3d
00000170: 3809 bebe 42f4 4e3e 775d 81be 519d 51be
00000180: 6fdf 95be c88a 9c3d d611 983e 3ef0 a5be
00000190: 63f6 063e 2fdd 6fbd 6507 8cbd f26b 003f
000001a0: 8843 e93d 74be aa3d 3d77 21ba 7ad3 eabe
000001b0: 0175 3bbe 0e1e b5be 7fad 223e ab62 abbd
000001c0: 03c7 bd3e 2e26 bb3e 6358 943e 8897 6dbe
000001d0: 4a83 03be 70ea 933e 1ab2 273e 18ae ef3d
000001e0: 141e 3d3d 62f6 833d 2eb1 8fbe 99ee d8be
000001f0: 568a 86be 9436 8fbe cb1a 02be e664 94be
00000200: 9e7c b4be f39b 0fbd 1cb1 ab3c d012 0ebe
00000210: fe40 403e ac73 803e 5ac0 933e 1e54 a2be
00000220: f21b 60bd 6f9a 7f3e e592 9abe cda9 273e
00000230: 5749 4d3e b2f1 bebe 154a 9abe bf83 ba3d
-0.1558808 -0.37851483 -0.11475683 -0.2364746 0.121804155 0.25277892 -0.40327817 0.089654826
0.17812034 0.02271152 0.29198515 0.21428996 0.35319155 -0.07264526 -0.027989486 0.3547048
-0.14961298 -0.10080793 -0.11535738 0.021280408 0.045947485 0.12867638 0.27800575 0.30196643
-0.32056612 -0.3032546 -0.33717367 0.16160119 0.039644096 -0.22959466 0.0049630357 0.41600084
-0.1442357 -0.3560885 0.3011451 0.12007536 0.17307752 -0.4460989 0.08954538 0.2131505
-0.025992546 -0.13838135 -0.066417396 0.39778957 0.35305744 0.098597005 -0.1852362 -0.24440163
0.40201184 -0.25394177 -0.15487115 0.45283142 -0.23573552 0.23221603 0.15886933 0.22491956
0.029130345 -0.021147402 0.13215797 0.21949519 -0.37712276 -0.2720419 0.08237408 -0.12177159
-0.32328594 -0.19993621 0.23344816 0.2584008 -0.36183175 -0.14135551 0.32536036 -0.13122499
-0.28943402 0.19309488 -0.14713834 0.17384705 0.17194752 -0.30281 0.2768801 0.07005806
-0.37728658 0.057776585 0.18546316 -0.21201749 -0.042129245 -0.50473607 -0.19189107 -0.31082124
0.041325532 0.24605267 0.18686482 0.08307264 -0.37116408 0.20210364 -0.2526662 -0.20470168
-0.2927203 0.07643658 0.29701108 -0.32409853 0.13179927 -0.058560546 -0.06837348 0.5016471
0.11389834 0.08337107 -0.00061594305 -0.4586447 -0.18306352 -0.35374492 0.15886496 -0.08368429
0.37065896 0.36552566 0.28973684 -0.23202336 -0.12843052 0.288898 0.16376534 0.117031276
0.046171263 0.06443478 -0.28064865 -0.42369536 -0.26277417 -0.27971327 -0.12705533 -0.2898323
-0.35251325 -0.035060834 0.020958476 -0.13874364 0.18774793 0.2508825 0.2885769 -0.317048
-0.05471415 0.24961255 -0.30190197 0.16373368 0.20047508 -0.37293774 -0.30134645 0.0910716

layer1.0.bias f4 [16]
00000000: 8b77 523e bc31 003f 3a07 45be 1545 583e
00000010: d1a4 733e 4ab0 93be 7ab8 d53c 3c80 38be
00000020: e13c 883e b943 95bd a0a0 31bd 3394 a13d
00000030: c800 113e 9365 d53d 35bc f8bc dbf2 8b3e
0.20553415 0.5007589 -0.19241038 0.21120103 0.23793341 -0.28845435 0.026088942 -0.18017668
0.26608947 -0.07288308 -0.043366075 0.07889595 0.14160454 0.10419764 -0.030363182 0.27333722

layer1.1.weight f4 [16]
00000000: 135e a03f c349 1b3f 0ce0 923f 1baa 243f
00000010: ee39 233f fa0e 453f 0328 463f 874a 933f
00000020: aecd 5b3f a5dc b63f edb7 403f 78ee 373f
00000030: 2737 463f 17e7 9d3f f907 803f 9e28 9a3f
1.2528709 0.60659426 1.1474624 0.6432206 0.6376027 0.7697598 0.77404803 1.1507119
0.8586072 1.4286085 0.7528065 0.7184825 0.77427906 1.2336148 1.0002433 1.2043645

layer1.1.bias f4 [16]
00000000: e270 0dbf 6ec9 12bf cf4a dcbe 2f6a 74bf
00000010: 7a60 2bbf 89b2 c1be a814 3dbf 2635 b0be
00000020: 255e a3be 45e3 b4be 3da3 95be 34ce e8be
00000030: 6747 22bf c5fb cebe 4db8 28be 8ad9 f6be
-0.5525037 -0.5733861 -0.43025824 -0.95474523 -0.66944087 -0.37831524 -0.73859644 -0.3441555
-0.31907764 -0.35329643 -0.29226103 -0.4546982 -0.633902 -0.4042646 -0.16476555 -0.48212844

layer1.1.running_mean f4 [16]
00000000: 0ee1 293e e6c7 0d3f 683d 55be e77b 6c3e
00000010: a1ed 893e e777 90be 65c3 1d3d 7b7f 55be
00000020: 3909 803e 219e efbd 0bbf 81bd 4e8d 953d
00000030: 593e 1f3e 65ef 913d 7374 2ebd a363 713e
0.16589758 0.55383146 -0.20824206 0.2309414 0.2693911 -0.28216478 0.03851642 -0.20849411
0.25007036 -0.117000826 -0.06335267 0.07302342 0.15551127 0.07125739 -0.042591523 0.23573165

layer1.1.running_var f4 [16]
00000000: d033 343f 1fbc 473f 5637 833e e7c1 493e
00000010: 39df c73e 43ad c53e 2d6c 8f3e 3c5a ab3e
00000020: f8d6 a33e 05a7 1c3f 13b9 813e 0b2c 343e
00000030: ab36 653e cc52 433f 7ff1 ef3e 60a6 3d3f
0.7039156 0.78021425 0.25628155 0.19702874 0.39037493 0.3860875 0.2801222 0.3346728
0.31999946 0.6119235 0.25336513 0.17594926 0.22384135 0.76298213 0.46863934 0.74081993

layer2.0.weight f4 [32, 16, 3, 3]
00000000: 2822 aabe 8642 10bd e2e4 88be 8ae6 8ebe
00000010: d103 56be 658d fcbd 721a 40bb 2850 0dbe
00000020: 1b08 22be 9c26 1d3e ded0 ae3d b9dc 3b3e
00000030: 183d 02be 22f8 4abe 563d dbbb 9335 a93d
00000040: 75aa 19be 2035 44bc 2e87 69bd a3fd 1abe
00000050: c92f 913d 7ffb 793b 264f 253e df92 253e
00000060: 1c08 90be 1701 143c abed 103e 8b40 cdbc
00000070: 3c8a 7c3c 0f47 9a3d 2e36 e3be c270 853e
00000080: 9a21 043e d596 713d 6690 10bc cba5 c7bd
00000090: af13 77be 35c7 2abe 7be9 053d 4f96 dfbe
000000a0: 4f7d 9ebe ee95 0f3e 00a3 e5bc cd3a 2bbe
000000b0: 19f8 51bd c4b1 c6bd 5847 06bd 4806 3ebc
000000c0: 5c16 8f3c c629 56be 889c b33d 0bae 243e
000000d0: 736e d7bc ce59 37be bf7f d03c 46bb 9c3d
000000e0: fe54 94bd 4012 53bc 8da7 cc3d 8d8d 033e
000000f0: 31af 26be 9370 963c 2662 273d 5da1 46be
00000100: a1d4 15bd 4a6c d33d 27ff a6bc f692 0e3d
00000110: 7f6a 523e 715f 4f3e 09e8 0bbe 0587 58be
00000120: 9940 243d 0b75 183e 41c4 983d 1989 0a3e
00000130: 1deb dcbd c82b b1bd 26f4 9d3e 83a6 673d
00000140: 18d8 b9be 21d8 28bd cdf3 2cbe 64e6 15be
00000150: b2dd 6dbd 30d5 cabe 6e96 a5be a644 0a3e
00000160: e8df 19bc ba47 ce3c be62 693c 6555 61be
00000170: 6c26 033e d007 2b3d 67df 103e 22f9 cb3d
00000180: e09f c33d 7a49 70be 24c5 1a3d f277 14be
00000190: 7ab2 4a3c cc66 dbbd ce2d f3bd bd0c 95bd
000001a0: e1c2 d6bd f337 963d 61e6 5dbe 1ac9 48be
000001b0: e42e a4bd c812 25bd c18f 9ebe 08da aebc
000001c0: 1690 e6bd 251e 34be effc 38be 05a0 56be
000001d0: 3b72 3dbe 4bff 453d 8011 573d 17ef 2e3d
000001e0: 7aba e63d f45d 21bb 8270 40be 6cc0 883c
000001f0: 156d cdbd 450a 6b3e ccfc abbe c0a4 cbbe
00000200: 3d7e dbbd d68b 073d b8f0 efbe a6cd 173e
00000210: 0be5 203e 73e1 093d 639b ccbc b484 463e
00000220: 3589 933e 6dae a3bd 7972 663e 0e80 813d
00000230: 573f 0a3e 57f0 6b3d fff1 ce3d 750d c23d
00000240: 9b9c c6bd e251 183e 586d 7abc 2024 d0bd
00000250: 2383 97bd 4084 583e 002b 58be 3db1 6cbd
00000260: 98ca 0fbe 0b16 483e 279a c93e daef 5f3e
00000270: 93d0 193e 1685 22bc 4b7c ae3d c77f 84be
00000280: 6bf9 2dbd 4087 d53d 36da 9cbe 593f d0bd
00000290: 2219 0dbe 2541 d93d a939 91bb bc0b f63d
000002a0: 5d25 c53d 48d7 b13d 7845 0dbe 1e67 6cbd
000002b0: e364 1cbd a2fd 503d f562 9f3d 2104 543e
000002c0: 3ad8 ddbd dcd7 8e3e 5479 903e 75d3 0d3d
000002d0: 7def 98bd 7192 35be e063 b53c da59 77be
000002e0: eea6 013e cd94 993d 3488 193d 0bc8 003e
000002f0: ceb1 4a3d 0549 01be a6a4 683d de6f d8bb
00000300: 5d5c 72bd f80a febc 3cc1 1cbe 0d59 26be
00000310: d840 99bc 587b 20be c484 24be a95a 6ebe
00000320: f612 8e3e a048 cf3c af0d 973d e611 5a3c
00000330: 4aa3 043e 9c3d 013e 3e91 813d 8d7a 8abe
00000340: b058 1fbe 7666 85be e938 16bd 2160 6f3d
00000350: 598a 88bd ddfe 1f3e 1523 163e 2d7c 54bd
00000360: 752f 243d 06c7 7f3e 0874 df3d e483 5c3e
00000370: f91e 06bd 5426 1fbd 904d a1be cf62 16be
00000380: 99e9 0a3e 378c cebc adc8 47be ab01 3f3e
00000390: eb36 37be 2b83 803c 5b34 2e3c a07e 973d
000003a0: 49b8 1dbe 23da 093d c37f 06be df86 de3d
000003b0: 06a4 9f3e c2f3 8c3c a0c4 7f3e 8890 543e
000003c0: 801e 503e 948d 7cbd 9d1c cb3d 4ad5 3bbe
000003d0: fce0 993e ade1 1cbe e61a f93d d0b7 86be
000003e0: 1453 b4bd 73be b9be f36c 69be 50ca 27bd
000003f0: 3dd5 0b3e 9403 e63d 780a 933d 271f 543d
-0.33229184 -0.03521969 -0.26737124 -0.27910262 -0.20899893 -0.12331656 -0.0029312638 -0.13800108
-0.15823404 0.1534676 0.08535932 0.18345918 -0.12718618 -0.19821218 -0.0066906614 0.082621716
-0.1500643 -0.011975557 -0.057013683 -0.15135817 0.070891924 0.0038144288 0.16143474 0.16169308
-0.28131187 0.009033463 0.14153163 -0.02505519 0.015413817 0.075330846 -0.44377273 0.2606259
0.12903443 0.058981735 -0.00882349 -0.097484194 -0.24128602 -0.16677554 0.032693367 -0.43669364
-0.30954978 0.14022037 -0.028031826 -0.1672165 -0.051261995 -0.09701875 -0.032782882 -0.011598177
0.017466716 -0.20914373 0.0877009 0.16082017 -0.026297783 -0.17905352 0.02545154 0.07652907
-0.072427735 -0.012882769 0.09992895 0.12846966 -0.16277768 0.018364226 0.040865086 -0.19397493
-0.03657973 0.10323389 -0.020385338 0.03480812 0.20548438 0.20251252 -0.13662733 -0.21145256
0.040100668 0.14888398 0.074593075 0.13528861 -0.10787032 -0.08650929 0.30850333 0.056555282
-0.3629768 -0.04122174 -0.16889878 -0.14638668 -0.058072753 -0.39615774 -0.3234133 0.1350275
-0.009391762 0.025180686 0.014244733 -0.22005232 0.12807626 0.041755497 0.14147721 0.09959628
0.09551978 -0.23465529 0.037785664 -0.1449888 0.012371654 -0.10712966 -0.11873971 -0.0727782
-0.10486389 0.0733489 -0.21669914 -0.19607964 -0.08016756 -0.040301114 -0.3096905 -0.0213442
-0.11257951 -0.17589624 -0.18065237 -0.2095948 -0.18500607 0.04833917 0.052506924 0.042708483
0.11266036 -0.002462265 -0.18792918 0.016693316 -0.10030571 0.22953136 -0.33591306 -0.39774132
-0.107174374 0.033092342 -0.4686334 0.14824542 0.15712373 0.03366227 -0.024976438 0.1938656
0.28815618 -0.079922535 0.22504605 0.063232526 0.13500725 0.057602253 0.10104751 0.09475223
-0.09697839 0.14874986 -0.015284859 -0.1016314 -0.07398059 0.211442 -0.21110153 -0.057786215
-0.14042127 0.19539659 0.3937542 0.2186884 0.15020971 -0.0099194255 0.08519801 -0.25878736
-0.04247419 0.104261875 -0.30635232 -0.101683326 -0.13779119 0.106081285 -0.0044319225 0.12013957
0.09626267 0.0868364 -0.13796031 -0.057715528 -0.03818215 0.051023133 0.077825464 0.207047
-0.108322576 0.27899063 0.28217566 0.03462549 -0.07467554 -0.17731644 0.02214235 -0.2415537
0.12661335 0.074990846 0.03748341 0.1257631 0.049485974 -0.12625511 0.056797646 -0.0066051325
-0.059170116 -0.03101109 -0.15308088 -0.16244908 -0.018707678 -0.15672052 -0.16066271 -0.23276772
0.2774884 0.025303185 0.07375657 0.013309931 0.12952915 0.12621158 0.06326531 -0.27046624
-0.15561175 -0.26054734 -0.036675368 0.058441285 -0.06667013 0.15624566 0.1466182 -0.051876236
0.04008432 0.24978265 0.10910803 0.21534687 -0.03274438 -0.038854912 -0.31504488 -0.1468613
0.13565673 -0.025213344 -0.19510145 0.1865298 -0.17892043 0.015687546 0.0106326 0.07397199
-0.1540233 0.033655297 -0.13134675 0.10865568 0.31179827 0.017206077 0.2497735 0.2075826
0.20324135 -0.061658457 0.09917567 -0.18343082 0.30054462 -0.15320463 0.121633336 -0.26312113
-0.088049084 -0.36278114 -0.22795467 -0.040964425 0.13655563 0.11231151 0.07179731 0.05178752

layer2.0.bias f4 [32]
00000000: e13c 73bc 1288 483c e0f6 a43d bc4c 123e
00000010: fb12 fa3d b665 7bbc 2096 8abd 2943 82bd
00000020: 80a2 65bd d0c6 d6bd e3a7 a6bd 00dd 4fbd
00000030: 6224 253a eb81 1bbe 5673 d839 2929 353d
00000040: 0cdb d93d 4614 93be c29b 9e3d 9c14 1f3e
00000050: 636a 80bd e9bb f13d 5d76 63bd d965 573d
00000060: 66be 76bd ae8b 733d 922d 203c 200d 973d
00000070: 8b6c a73c 0aca 1abe 4149 b83c bf17 763d
-0.014846058 0.012239473 0.080549 0.14287084 0.122106515 -0.015344074 -0.06766915 -0.06360466
-0.056063175 -0.10487139 -0.081374906 -0.05074787 0.0006299672 -0.15186279 0.00041284662 0.044228707
0.10637483 -0.28726405 0.07744552 0.15535206 -0.06270292 0.11803419 -0.055532802 0.052587364
-0.06024017 0.05945938 0.00977649 0.0737555 0.0204375 -0.15116134 0.022495868 0.06008124

layer2.1.weight f4 [32]
00000000: 81a2 6b3f b427 1a3f 80f9 4b3f b5a7 283f
00000010: 325b 573f d9e9 373f 9c5d 903f 4b89 893f
00000020: 7976 293f 4b38 8c3f 5f08 a33f 4f6d 483f
00000030: 9d4e 493f 338f 4d3f f498 6d3f 36b4 6e3f
00000040: 0de2 693f 1292 303f d527 893f 8b4d 6e3f
00000050: 9fe7 403f 5c6d 533f c95c 1e3f 00b8 2d3f
00000060: d266 de3e 7550 9a3f 3a38 883f 4d85 543f
00000070: 85fd 5e3f 4b3c 163f da52 793f b54d 703f
0.92044836 0.6021683 0.7967758 0.658809 0.8412353 0.718412 1.1278567 1.0745023
0.661964 1.0954679 1.273693 0.7829179 0.7863558 0.8029663 0.9281151 0.9324373
0.9136055 0.68972886 1.0715281 0.9308707 0.75353426 0.82588744 0.6186033 0.67858887
0.4343782 1.2055804 1.0642159 0.830159 0.8710559 0.5868575 0.97392046 0.9386857

layer2.1.bias f4 [32]
00000000: c8e9 24bf aaba 1abf 1cbf 53bf abc4 5dbf
00000010: 53d4 0ebf 6fc2 2abf bc93 3cbf 1344 51bf
00000020: 9a72 25bf d1e2 40bf 3e71 4fbf fa19 2ebf
00000030: e7a9 15bf e3a6 12bf 163f 0bbf 9369 0abf
00000040: a2fc 14bf 0ebb f7be 7704 2bbf 7d8d 36bf
00000050: 1f69 09bf 9edd c7be a91c c8be 4e97 44bf
00000060: f934 42be 2a35 62bf 842d 0cbf 1271 20bf
00000070: ff9a 4bbf 8128 63bf 0135 36bf d0d6 1ebf
-0.6441922 -0.60441077 -0.82713485 -0.86628217 -0.5579273 -0.6670293 -0.73662925 -0.817445
-0.64627993 -0.75346094 -0.8103217 -0.6800839 -0.58462375 -0.572859 -0.54393137 -0.54067343
-0.5819799 -0.483849 -0.6680369 -0.71309644 -0.5367603 -0.39036268 -0.39084366 -0.7679337
-0.1896552 -0.8836237 -0.5475695 -0.6267253 -0.7953338 -0.8873368 -0.7117463 -0.6204653

layer2.1.running_mean f4 [32]
00000000: a237 e8bf c8a9 f8ba af82 9f3e b5f2 b33f
00000010: d96a 76bf 2536 6d3d df6c 87bf ed30 e7bf
00000020: cfed 02be 2f38 fcbf 08b6 cebf b676 7abf
00000030: f7ae a0bf c0a3 d4bf 58ca 7cbf fadb 03c0
00000040: 5f99 99bf c6e3 62bf 4b7e efbf 57ee a7bf
00000050: c619 a1bf f6fe 37bf 78a7 80bf 044d 8abd
00000060: 2722 4abe 694e b1bf 3e70 0cc0 5158 99bf
00000070: 8fc0 a9bf 71ba 1abe 70f9 efbf 6f7d 9dbf
-1.8141978 -0.0018971497 0.3115439 1.4058443 -0.96256787 0.057912964 -1.05801 -1.8061806
-0.1278603 -1.9704646 -1.6149302 -0.9783739 -1.2553395 -1.6612473 -0.9874625 -2.0603013
-1.199993 -0.88628805 -1.8710417 -1.311961 -1.258599 -0.71873415 -1.0051107 -0.06752971
-0.1973959 -1.3852054 -2.1943507 -1.1980077 -1.3261889 -0.15110184 -1.8747997 -1.2303904

layer2.1.running_var f4 [32]
00000000: 3f34 b740 91f7 2240 95d3 7b40 3e9a 3b40
00000010: ea62 b040 5df2 9a40 6395 7e40 95ca ab40
00000020: f4ba 5e40 16fa c240 dfcd aa40 3ffa 3640
00000030: e3b4 4440 59be c340 1767 b640 4185 ac40
00000040: 7f88 9c40 476c 2140 a223 d540 57eb 8c40
00000050: d973 7b40 347d a440 ff4b 7540 8d0b 4e40
00000060: c393 2b40 316d b840 cbf4 b540 6a4b 9340
00000070: bdd4 3140 82fc d73f a4a6 da40 ead3 aa40
5.7251277 2.5463603 3.934789 2.9312892 5.5120745 4.8420854 3.9778678 5.3684793
3.4801607 6.093028 5.3376307 2.8590238 3.0735404 6.116986 5.700084 5.3912663
4.891662 2.5222337 6.6605997 4.403728 3.9289458 5.1402836 3.8327634 3.219455
2.6808937 5.763329 5.686132 4.602956 2.7786095 1.6873934 6.832842 5.3383684

layer3.1.weight f4 [128, 800]
00000000: be08 0ebe 2f5c 773e 4e1b 733e b124 093d
00000010: 32ab ecbc 8579 003d 2238 d1bd 604c 193e
00000020: 0a29 133e 028d 07bd 9301 a3bc e717 cbbd
00000030: 4e5c e7bd 59ca adbc 475f 11bc 7c9f 0a3d
00000040: c31c c93c 545e 85bc dab3 c23d 5315 d93d
00000050: c203 353e eb33 2c3c 0697 e6bc c228 5d3e
00000060: 13d3 f13d 9028 14be 4ee5 24be a59b 1dbe
00000070: e4c9 f3bd 3062 523e 9b2a 0abe aaf9 1a3c
00000080: 42b9 da3c 5b9a a33c 0e79 2cbe 0b7b c9bd
00000090: 7454 96bd ff03 30be af22 c9be ed02 d7bd
000000a0: ade4 9dbc d47f 21be 4329 11be 9208 62bd
000000b0: 40c1 85be 2137 8ebb e553 65be e7bf 53be
000000c0: 6234 5f3d cbd9 5f3d 5fec f0bd fe73 35be
000000d0: 4a35 09be 5193 08be 8caf 073e 71df 6ebe
000000e0: f4f7 48bd b012 b6bd a5f2 b93d df41 32be
000000f0: bfcb e53d 1ec5 0c3e 78e2 603d ace2 36be
00000100: 3f1b a3be c047 00be 97b9 cebd e484 813c
00000110: 895b fbbd 3e6f 03be 2658 7c3d e6e9 833d
00000120: d9c1 213e d716 2c3e 9ed1 b93d f293 f43d
00000130: d467 95be d736 31be f5b8 38be 46a0 5fbe
00000140: 93c8 103d b019 4dbd 965c 8bbd cd39 24be
00000150: 1c9f 6abe d21e 473d 04fa dd3d acd0 293e
00000160: 6f57 5dbe f8c5 013d 8519 20be d8c6 d93b
00000170: 7658 353c 64a9 023d 83bc 1b3b 4731 15bd
00000180: 2969 26bc b25e 80be 6afa 5bbe 3b55 01be
00000190: cd5f d4bd cd60 adbd 38e5 83bd 14dd 84bc
000001a0: 68a3 373d b2c7 083d c396 4dbe f442 9bbd
000001b0: 29a0 3e3c 21ee 883e 241f 29bc 144b 083d
000001c0: 8b59 243e fe03 243c f050 bdba ddbe 083e
000001d0: b77a 983d 40cf 3b3e 246d a9bd d477 64bd
000001e0: 2fee d5bc fe16 88bd 2a53 5e3d e5a5 3ebd
000001f0: d80e a53d ccaf a2bc 154c 48bd 2aa1 b0bd
00000200: 817d c23d 86a8 7c3e 5f16 22be 23cc b23c
00000210: c4cf 323d 6432 81be 116e 813d 850a ba3c
00000220: bfce 1b3e eab9 00be ed91 50be db1e 903d
00000230: fdde 3e3e 58f2 753d 7a0c 02be 7b19 71be
00000240: 3d78 00be 22a9 50bb bc22 1c3e 6798 d4bd
00000250: fb90 443d e29a 9e3c 6162 a3bd d122 563d
00000260: 0c71 68be db5a 13be 6f03 b43d e76a c7bd
00000270: 99ef c1bc edc0 783e d720 863e 626c 783c
00000280: b24d 6abe ab9b 8dbe 083e 8dbe 5ace 79bd
00000290: 7a78 b73d fa5a b53d f746 4d3d dca4 50bd
000002a0: a85e 15be 9522 76be f7bd c13d b4c2 e83d
000002b0: 9dac 083d f7d0 b23d 7303 743e 485f ea3d
000002c0: c224 003e 4932 c23e 4a66 0c3e 9d36 75be
000002d0: 2007 86bd 81f1 16bd 2afc f13e 75b8 173e
000002e0: 8c91 d33d b89a b0bd 621d 413c 131f 9abd
000002f0: 8115 073e 8543 943d 08d9 c63d cf72 023e
00000300: 50fc 86bd 4ee6 4b3d 8f32 48bd 5c72 40bd
00000310: 1bc5 7b3d b4ca 5dbe d2a4 c5bb 7a6c c33d
00000320: a7b9 2fbe 30d1 d1bd 02f1 ac3d 8040 37be
00000330: d11e 04be 098d 81bd 3d68 90be 7de7 8e3d
00000340: 5b69 2ebd 9caf e23d 6640 acbc 9693 193e
00000350: f736 ac3d 0716 9b3d 892c 4c3d 882c 233e
00000360: acd6 343d fbb0 ddbd 8d1c 9eba f359 543e
00000370: 4178 1ebc b139 64be 5628 babd afca 1b3c
00000380: 8a38 823d ba63 233d 39ed 0ebe 044c 033d
00000390: 5303 09bd 76f2 ee3d 9a49 c23c 09b0 71bd
000003a0: 1226 aabc 2365 e73d 64a7 4b3d b665 20be
000003b0: e698 0ebe 9a20 77be 4f9a 913d 81a3 fb3d
000003c0: 1d78 0a3d 9426 f83d 330f 453e 5e97 e5bb
000003d0: 068a 9c3c ae9d b03c 2de8 c53d 5831 283e
000003e0: 2250 093e 0e58 6c3e 327c 19be f9dd 033c
000003f0: d214 09bd a339 b2bd 8fe4 e13d d965 29bc
-0.13870522 0.24156259 0.23740885 0.033482257 -0.028890226 0.03136589 -0.102157846 0.14970541
0.14371124 -0.03309346 -0.019898212 -0.099166684 -0.112969026 -0.021214651 -0.008872814 0.033843502
0.024549847 -0.01628033 0.0950696 0.105997704 0.17677215 0.010510425 -0.028148185 0.21597579
0.11807837 -0.14468598 -0.16103098 -0.15391405 -0.11903742 0.20545268 -0.13492815 0.009458939
0.026699666 0.019971063 -0.16843054 -0.09837922 -0.07340327 -0.17189024 -0.39284274 -0.10498605
-0.01927408 -0.15771419 -0.14175896 -0.055183955 -0.26124 -0.004340068 -0.22395284 -0.20678674
0.054493316 0.054651063 -0.11763834 -0.17720029 -0.13399234 -0.13337447 0.1325056 -0.23327424
-0.04906459 -0.08890283 0.09079484 -0.1740794 0.11220502 0.13747069 0.054903477 -0.17859906
-0.31856725 -0.1252737 -0.10093992 0.015810438 -0.12273318 -0.12835404 0.061607502 0.06441097
0.15796603 0.16805588 0.090731844 0.11942281 -0.29180777 -0.17306076 -0.18039306 -0.21838483
0.035347532 -0.050073326 -0.06804769 -0.16037674 -0.22912258 0.048613377 0.10838702 0.16583508
-0.21615385 0.03168294 -0.15634735 0.0066460185 0.011068454 0.031899825 0.0023763485 -0.036423948
-0.010156908 -0.25072247 -0.21482244 -0.12630169 -0.10369835 -0.08465729 -0.064402044 -0.0162187
0.04483357 0.03339357 -0.20077042 -0.0758113 0.011634865 0.26744178 -0.010322366 0.033274725
0.16049783 0.010010717 -0.0014443677 0.13354059 0.07445281 0.18340778 -0.0827277 -0.05577834
-0.026114551 -0.066450104 0.05427853 -0.046544928 0.08059472 -0.019859217 -0.048900682 -0.086244896
0.09496594 0.24673662 -0.15828846 0.021825856 0.043655172 -0.25233757 0.063198216 0.022710094
0.15215586 -0.1257092 -0.20368166 0.07037135 0.18639751 0.06004557 -0.12700072 -0.23544876
-0.12545867 -0.0031839092 0.15247625 -0.10380631 0.047989827 0.019360963 -0.07977749 0.052279297
-0.22699374 -0.14390127 0.087897174 -0.09737187 -0.02367382 0.24292345 0.2619693 0.015162559
-0.22881201 -0.27657828 -0.2758639 -0.060987808 0.08958526 0.08855243 0.050116505 -0.050938472
-0.1458689 -0.2403663 0.09460061 0.11365262 0.03336774 0.08731263 0.23829441 0.11443955
0.12514022 0.3792899 0.13710895 -0.23946615 -0.06544328 -0.03685141 0.47262698 0.14816459
0.10330495 -0.0862326 0.011786791 -0.07525458 0.13191797 0.07239441 0.09709364 0.12739109
-0.065910935 0.049780183 -0.04887634 -0.04698406 0.06146727 -0.21659356 -0.006031611 0.09542175
-0.17160664 -0.102449775 0.08444406 -0.17895699 -0.1290238 -0.063257284 -0.28204527 0.06977747
-0.042580944 0.11068651 -0.021026801 0.14997706 0.08408921 0.07572561 0.04984716 0.15934956
0.04415004 -0.10824772 -0.0012062952 0.20737438 -0.009672225 -0.22287633 -0.09089725 0.009508773
0.0635844 0.03989003 -0.13957681 0.032054916 -0.033450436 0.116673395 0.023716737 -0.05900577
-0.020770106 0.11298587 0.049720183 -0.156638 -0.13925514 -0.2413353 0.0710951 0.12287045
0.033805955 0.12116733 0.1924408 -0.0070065698 0.019108783 0.021559563 0.09663425 0.16425073
0.13409474 0.23080465 -0.14988783 0.008048528 -0.03346712 -0.087023996 0.11029922 -0.010339224

layer3.1.bias f4 [128]
00000000: 7cab bc3c 8248 04bb cbcf 18bd 8558 773c
00000010: a53d ddbc 6424 463c af88 dabb 8584 da3b
00000020: 98f1 c13b 3b77 fdbb 3000 413c a184 d63b
00000030: b846 22bc b8e6 e03c 279c e7bc 3b77 f83b
00000040: 8e4c f2bc edc3 8e3c 4942 1d3c 207d 933c
00000050: 943e 6a3c 8806 043b fead 08bb c5f1 e9bc
00000060: b867 893c 0d41 68bc 1d80 d9bc a3a7 a93c
00000070: 65e3 cdbc aa6e cdbc db68 90bc 11c9 9cbc
00000080: ad0d af3c 3990 e6bc a31e 7dbb b726 9dbc
00000090: c6e8 7dbb b855 69bc 777b 833b d1d3 df3c
000000a0: 84c1 003d 29d5 abb8 256f e0bb 0f7b 7ebc
000000b0: faaa f7bc adc3 82bc 2720 b23c 1310 60bc
000000c0: fd25 9b3c 1e72 54bc bc27 a73b 6ecf d2bc
000000d0: 697f 7abc b16b 7b3b e873 7e3c 05d9 9bbc
000000e0: 8e0e 1e3b 2878 a13c 813c f2bc 56e4 ac3b
000000f0: bcbe a0bc 50c3 d43c fac1 8abc 1994 12bd
00000100: 7e83 3ebb a73b 2b3b ed14 7a3c ecad cf3c
00000110: e764 17bd 8e39 7dbc e514 f9bc 9449 af3c
00000120: 2aa6 c9bc 5ee7 fbbc b190 bdbb 1864 b53c
00000130: 9a50 89bc 710f fb3c 1f36 9ebb 7550 943c
00000140: d0b5 fd3c 784e efbc 3bb4 42bc 52ec 923c
00000150: bbb8 8ebc 355c 7abb 8b96 df3a 8c44 083d
00000160: 5fac d3bc c12e ccba 39a9 b03c 3587 cfbc
00000170: 22bd d33c 3b08 913c 13cc a63c 6291 ccbc
00000180: 726d 023d 85c0 3a3c 3196 f2bc 6a62 12bd
00000190: dfbc 0d3d efb3 27ba 08bc 3fbc 3722 d7bb
000001a0: 32a3 b03c 227b ebbc 5684 bb3c 7df9 59bc
000001b0: 88ca 033d d75f 45ba 1604 e4bc d1e0 d63a
000001c0: 2b6b 6d3c ea56 f6ba a423 ea3c 98b6 02bc
000001d0: 8c64 6dbc 29ef b83c 172e 273a ec88 013d
000001e0: d6b5 d3bc 7a6a 983c 172d 03bd 27fe e63a
000001f0: b074 07bd 190b e1bc 7f4e bd3b 9752 b73c
0.023030989 -0.002018482 -0.03730754 0.015096788 -0.027006933 0.012093637 -0.006669126 0.0066686296
0.005918693 -0.0077351606 0.01177983 0.0065465723 -0.009904556 0.027453765 -0.028272701 0.0075825728
-0.02957752 0.017427409 0.009598323 0.018004 0.014297146 0.0020145494 -0.002085566 -0.028557668
0.01677309 -0.014175666 -0.026550347 0.020709818 -0.025132844 -0.025077183 -0.017628124 -0.019138845
0.021368826 -0.028144943 -0.0038622997 -0.0191835 -0.003874348 -0.014241628 0.004012521 0.027322682
0.03143455 -8.1936196e-05 -0.006849187 -0.015532269 -0.030232895 -0.015962446 0.021743847 -0.013675707
0.018939013 -0.012966661 0.0051011723 -0.025733676 -0.015289166 0.003836375 0.015530564 -0.019024381
0.0024117562 0.019710615 -0.029569866 0.005276243 -0.0196222 0.025972039 -0.016938198 -0.03578577
-0.0029070075 0.0026128085 0.015263778 0.025351487 -0.036961462 -0.015455617 -0.030405471 0.02139739
-0.024615366 -0.030749973 -0.005785071 0.022142455 -0.016762067 0.030647011 -0.004828229 0.018104771
0.030970484 -0.029212222 -0.011883791 0.017934952 -0.01742207 -0.0038201932 0.0017058415 0.033268496
-0.025839029 -0.0015577899 0.021565067 -0.025333026 0.025847021 0.01770412 0.020360982 -0.024971668
0.031842656 0.011398439 -0.029612632 -0.035738386 0.03460395 -0.00063973566 -0.011702545 -0.006565358
0.021562193 -0.028745238 0.022890251 -0.013304112 0.03217557 -0.0007529235 -0.02783398 0.0016393905
0.014490883 -0.0018794213 0.028581448 -0.007978104 -0.014489304 0.022574978 0.00063774124 0.03162472
-0.025843542 0.01860546 -0.032025423 0.0017623351 -0.033070266 -0.027471112 0.0057771797 0.02237825

layer3.2.weight f4 [128]
00000000: baf0 c23f af85 c83f daad d83f 8229 c13f
00000010: f168 b73f 7b58 b43f bcd8 b43f b0df b43f
00000020: 972d b23f d177 b73f 7796 b23f 886a ba3f
00000030: 7b63 c23f 342d c53f 1344 bc3f 6d92 de3f
00000040: afbe bd3f abfd b93f de02 b53f 31d0 ae3f
00000050: 4335 c33f ee5f b03f 6bd3 bc3f c7c1 c83f
00000060: 70a3 b93f 99cd b23f 15f4 d63f 9604 ca3f
00000070: 2b13 b23f a101 b13f e796 bc3f 7f76 bb3f
00000080: dcfc cb3f 1980 bc3f 999c c93f b40b c23f
00000090: a527 ae3f dbd6 ae3f 6458 b83f 34d3 bf3f
000000a0: 2323 d33f b558 b53f 0b99 c93f 3a6d c23f
000000b0: 8aa3 b33f 9df1 c63f b8fb 9f3f 3b6e ba3f
000000c0: d539 cb3f 586d c73f 4e76 ac3f 2406 bf3f
000000d0: 61a5 aa3f 2343 be3f e50c d13f 7e2e b43f
000000e0: a52b d03f ba04 ad3f b144 c13f ec21 c33f
000000f0: b6d5 d23f f116 c43f 270a c23f 1f45 ae3f
00000100: 7897 bd3f b43c b73f a76e b83f 3f29 b23f
00000110: 7955 c33f 3de3 c33f 3481 bb3f 102c c43f
00000120: 1249 d43f f6e4 b73f 3a31 de3f e93f b53f
00000130: fe1e cd3f 5df9 a93f e641 b13f b340 b33f
00000140: 7ef5 b73f 21ee ca3f 8c32 d43f af73 ca3f
00000150: 9ebe b33f 225a bf3f 0bdc c43f b7c9 a83f
00000160: 0959 b83f 49d9 d33f f46d d33f 37aa be3f
00000170: 1b5f ca3f 455e cd3f df51 bb3f 1897 bc3f
00000180: 18b0 cc3f 7596 c53f 00f4 dc3f b877 b73f
00000190: 9540 cd3f b43a ae3f c687 ca3f 35d9 d13f
000001a0: 2db7 b73f fd7c bf3f 8c06 b93f ef10 b83f
000001b0: 8d28 af3f 5db6 bb3f 98a6 be3f 3256 c33f
000001c0: 8532 be3f f173 d23f 89d5 d23f ee72 b03f
000001d0: 7044 b43f 0b7d b53f 41f4 ca3f 52d3 ad3f
000001e0: 4ee3 a43f 2971 b63f 7d75 cb3f 03c5 b63f
000001f0: 193d b63f 2b80 b33f 3bf1 d73f 7b6b b83f
1.5229714 1.5665797 1.6928055 1.5090792 1.43289 1.4089502 1.4128642 1.4130764
1.3920163 1.433344 1.3952168 1.4563761 1.5186609 1.540442 1.4708275 1.7388436
1.4823817 1.4530538 1.41415 1.3657285 1.5250629 1.3779275 1.475202 1.5684136
1.4503002 1.3968993 1.6793238 1.578265 1.39121 1.3828622 1.4733552 1.4645537
1.5936542 1.4726592 1.5750915 1.5159822 1.3605849 1.3659319 1.4401975 1.4986329
1.6495098 1.4167696 1.574983 1.5189583 1.4034283 1.5542485 1.2498693 1.456489
1.5877024 1.5580244 1.3473604 1.4923749 1.333172 1.4864239 1.633206 1.4076688
1.6263319 1.3517067 1.5099088 1.5244727 1.6471469 1.5319501 1.5159348 1.3614844
1.481185 1.43154 1.4408768 1.3918837 1.5260459 1.5303723 1.4648805 1.5325947
1.6584799 1.4366748 1.7358773 1.4160129 1.6025083 1.3279225 1.3848236 1.400412
1.4371793 1.5853921 1.6577926 1.5816554 1.4042547 1.4949381 1.5379652 1.3186558
1.4402171 1.6550685 1.651793 1.4895695 1.5810274 1.6044394 1.463436 1.473361
1.599124 1.5436541 1.7261963 1.433341 1.6035334 1.3611665 1.5822685 1.6394411
1.4352776 1.4960018 1.4455123 1.4380168 1.368425 1.4665028 1.489459 1.526068
1.4859167 1.6441633 1.6471416 1.3785074 1.4083385 1.4178785 1.585579 1.3580115
1.2881868 1.4253284 1.589523 1.4278873 1.4237396 1.4023489 1.6870493 1.44078

layer3.2.bias f4 [128]
00000000: d0a7 41be e3d6 333d 2c1e c33d e0f4 c4be
00000010: b9e2 99bd 6810 8cbe abae 4dbe 66d8 0bbe
00000020: 7a4d 14bd f808 0abe 2459 46bd 86f7 bf3c
00000030: 0366 b1bd e0d4 c8bd 43ba 48be d041 123e
00000040: 9657 24be e0c6 9ebe cfeb 18be ac52 d4bd
00000050: dcfc d2bd 5505 9abe bd46 dfbd 9f9a 563c
00000060: 12a6 90be 5422 bcbe f5ad 6c3d 5ce1 eb3c
00000070: 7aa8 d7bd de7f 56be 2b31 e7bd 19f6 3dbe
00000080: a919 55bd 881a 18be dc84 19be bebd 25bb
00000090: 530f f7bd 5e03 1bbe 06b1 d8bd ee1a 47be
000000a0: 347d a13d 60ec debd 33ce c2bd d4d5 3ebe
000000b0: 9c68 c0bb cef2 20be b0b0 e4bd 62b4 f3bd
000000c0: 3eb9 9a3d ec1e 8e3d e48d 1bbe 41ec 1cbe
000000d0: 6db8 acbe abc8 a83d 2d5d 573d f0fe 74be
000000e0: 8306 5f3d 8855 72be 8c57 d2bd 3a4d 863d
000000f0: 44b4 473d 0b7d 8cbe 0809 6abe cbed 18be
00000100: e873 21bd 0be3 9f3d af03 97be 7c4e 12be
00000110: 8154 78bd 6d95 92be 9304 98be 8176 9abc
00000120: 1338 7abd 71dd 9cbd 5096 5f3d b69f 4cbe
00000130: afd2 edbd b191 5dbe d11c 55be 637a 97be
00000140: b3da 78be e01b 51be 4517 28be c961 8dbc
00000150: 0aee 5cbb 57a6 b13d 9f39 38be 2976 eabc
00000160: 35ad 07bd 82d0 e9bd d3b6 dbbd 4df1 50be
00000170: 2281 123d 3ab8 a5bd 2cc6 7dbe 3611 86be
00000180: ed51 38be ce60 3d3c 0202 1b3d 0c7c 38be
00000190: 1b94 4ebe 41c9 5abe 4ff7 dd3d 4489 863c
000001a0: bc4e 1abe 7683 cabc 145a 2ebe eb56 44be
000001b0: 0799 a0be 6296 30be 4562 7ebe 59bb cebd
000001c0: 8157 a0be d1d9 12bc 8f8e 2e3e 6cad 5fbe
000001d0: df88 33be 6a84 11be 04d5 45bc ce12 26be
000001e0: 7d9c a1be 6652 9abe 1f80 cabd 7f9b 73be
000001f0: a415 83be 84a5 aebe 6132 5e3d 1ef9 43be
-0.18911672 0.043906104 0.09527239 -0.38468075 -0.07513947 -0.27356267 -0.20086162 -0.13656768
-0.0362067 -0.13479984 -0.048424855 0.023433458 -0.08662035 -0.09806228 -0.19602303 0.14282918
-0.16049036 -0.31011105 -0.14933704 -0.10367331 -0.10302135 -0.30082193 -0.10902164 0.013098388
-0.28251702 -0.3674494 0.057783086 0.028793983 -0.10530181 -0.20947215 -0.11288675 -0.1855091
-0.052026425 -0.14853871 -0.14992088 -0.0025290097 -0.1206347 -0.15138003 -0.105806395 -0.19443867
0.07885209 -0.10884929 -0.09511986 -0.18636256 -0.0058718454 -0.15717623 -0.11166513 -0.1189964
0.075548634 0.06939492 -0.15190846 -0.15324499 -0.33734456 0.082413994 0.052579094 -0.23925376
0.05444957 -0.2366544 -0.102706045 0.065576985 0.0487559 -0.2743915 -0.22855008 -0.14934461
-0.039417177 0.07806977 -0.29494998 -0.14287752 -0.060627464 -0.28629628 -0.2969099 -0.018855335
-0.061088633 -0.07659424 0.05458671 -0.199828 -0.1161245 -0.21637608 -0.20811774 -0.2958556
-0.24302177 -0.2042079 -0.16415127 -0.017258542 -0.0033711218 0.08674305 -0.1799073 -0.028620796
-0.033124167 -0.11416723 -0.1072823 -0.20404549 0.035767682 -0.08091779 -0.24782628 -0.26185006
-0.18000002 0.011558725 0.03784371 -0.1801607 -0.20173685 -0.21365835 0.10838186 0.016422875
-0.15069097 -0.024720889 -0.1702655 -0.19173782 -0.3136675 -0.17244866 -0.24842174 -0.100943275
-0.3131676 -0.008963064 0.1704657 -0.21843499 -0.17532681 -0.14210668 -0.012074713 -0.16218111
-0.31564704 -0.3014099 -0.098877184 -0.23789786 -0.25602448 -0.34110653 0.054247264 -0.19138

layer3.2.running_mean f4 [128]
00000000: 507a b13e 52a7 133f 4afd 1f40 4d1e 30c0
00000010: fd4b 363f b905 1a40 cd6f 673f 9e26 4440
00000020: 2a41 b03f a551 ce3e 456f 003f 2000 2d40
00000030: f70c 4c40 4c78 ec3f c7fd cc3e 01c7 b840
00000040: 9070 3e40 dbd6 aabf 4f20 61bf eb82 40c0
00000050: a495 623f a9aa 1340 a024 f33f 1284 6940
00000060: 3833 69c0 3e20 57c0 c2cd 2340 6c7d 3140
00000070: 4234 7d40 1045 d9bf e72a 3540 b3da 043f
00000080: c9d6 ad3f 95f8 773f d317 93bf e148 0a40
00000090: 9c5a 14c0 6481 3940 93fa b43f 86c7 4f3d
000000a0: 25e3 39be e1f8 0b40 a941 8c3f a24e 6bbe
000000b0: ac09 3840 5761 33c0 d173 8ebf 56d9 26c0
000000c0: 055a 3340 0499 6240 7101 db3e 389c c73e
000000d0: 7ae9 ca3f 711a fa3f cde1 ee3f 57fc da3f
000000e0: 153b 4640 2b01 ffbf d3e8 b93f 2582 b73f
000000f0: a059 9d40 852a 40c0 0cb1 a3bf bf6c ec3f
00000100: 1a37 863e 59f9 0b40 1d74 84bf bbe1 51bf
00000110: c6ad 1040 9a72 5e3f 8f7f 51c0 a8d9 4640
00000120: 7ce1 5140 953d 0a3f 3ccc 5840 2e80 a83f
00000130: 795b 193f d8c5 b3bf 419f a73f d2b7 4ac0
00000140: 2ea9 8cc0 801b 5dc0 5325 31c0 5aec c73f
00000150: 9a77 5f40 28dc df3f bb18 903e dcaa 9a3f
00000160: 3379 2940 4b2e 6440 e857 2640 b67b 00be
00000170: 790a 4340 dfaa 0140 662d b7bd ca39 bfbf
00000180: 71d0 8abf 196d a0bc 475d 05c0 5256 9e3f
00000190: 56b7 a93f 2204 133f 851b 2f40 99be 4240
000001a0: 0e16 1440 cd8c 7f40 b01d 29c0 1418 9bbf
000001b0: 2a24 57c0 3fb7 0640 d9d0 8e3f 754a 3340
000001c0: 2ea0 02c0 4338 3e3f ae43 9140 e0d8 d13f
000001d0: 853c 9a3f 512f 0abf 6195 8b3f a4d4 e03f
000001e0: d01d 34c0 b153 83bf 323b bfbf d8f3 36c0
000001f0: 4a02 8bbe b2f2 c9bf 7b58 4440 3251 0e3f
0.3466363 0.57677186 2.4998345 -2.7518494 0.712097 2.4065993 0.9040497 3.064857
1.3769886 0.40296665 0.50169784 2.7031326 3.1882913 1.8474212 0.40037367 5.7742925
2.9756203 -1.3346819 -0.87939924 -3.0079906 0.88509583 2.3072913 1.8995552 3.648686
-3.6437511 -3.361343 2.5594335 2.7732801 3.9563146 -1.6974201 2.8307436 0.5189621
1.3581172 0.9686368 -1.1491646 2.1606982 -2.3180304 2.8985224 1.4138969 0.05072739
-0.18153055 2.1870654 1.0957538 -0.22979215 2.8755903 -2.8028162 -1.1129094 -2.6070151
2.8023694 3.5405893 0.42774537 0.38986373 1.5852501 1.9539319 1.8662659 1.7108258
3.097356 -1.9922231 1.4524177 1.4336592 4.9171906 -3.0025952 -1.2788405 1.8470687
0.26213914 2.187094 -1.0347935 -0.8198506 2.2606063 0.8689362 -3.2734106 3.1070347
3.2793875 0.54000217 3.3874655 1.3164117 0.599052 -1.4044752 1.3095475 -3.1674695
-4.395652 -3.4548035 -2.767903 1.5619004 3.491675 1.7489061 0.28143868 1.2083392
2.6480224 3.5653255 2.5991154 -0.12547192 3.0475142 2.0260541 -0.08944206 -1.4939511
-1.0844861 -0.019583272 -2.0838182 1.2370093 1.3259075 0.5742818 2.7360547 3.0428832
2.313846 3.9929688 -2.642437 -1.2116723 -3.3615823 2.1049345 1.1157485 2.8014195
-2.0410266 0.743046 4.5395117 1.639431 1.2049719 -0.5397845 1.0904962 1.7564893
-2.8143196 -1.0259916 -1.493994 -2.858633 -0.27150184 -1.577719 3.0679004 0.55592644

layer3.2.running_var f4 [128]
00000000: c80a 4341 97cb 3241 8dc8 7341 c19d 1a41
00000010: 03e9 2f41 71d4 0a41 d415 1341 fcf0 4a41
00000020: 88a4 1341 4b85 2941 d686 2541 2adb 0141
00000030: bb92 3941 9897 2e41 a9c6 4b41 3924 6a41
00000040: e8c2 2941 0b11 2f41 09dc 0241 3a96 2641
00000050: a846 3641 1d4a d240 bda2 0241 a0a6 7c41
00000060: dd43 2d41 81d0 3541 9211 3441 dc95 4b41
00000070: 990e 0141 b9c7 1241 2b26 3341 2370 2e41
00000080: 1d96 1d41 cffd f340 d3ea 7141 cb17 2941
00000090: ea68 2d41 51d8 1341 fea8 dd40 1825 7641
000000a0: 93a6 4241 b982 0741 c4d5 3341 0032 2741
000000b0: b8b2 1941 b4c6 1d41 d620 e840 898d 2a41
000000c0: 7a4b 4c41 1358 4e41 915f d740 e165 5e41
000000d0: 80bf 0b41 dbbd e340 2a86 4741 ed90 1641
000000e0: c3b0 5a41 df71 0541 dad3 f240 1404 3041
000000f0: 5152 5a41 5885 8441 d34c 3a41 4bd2 c840
00000100: 3fb5 0d41 ae20 1b41 bcd5 0f41 8879 7b41
00000110: 61ce 1341 5e3f 2a41 16b1 4d41 9265 3c41
00000120: 51fc 3041 d39b 2341 93bf 4141 a89c 1141
00000130: 1b1f 4841 f271 3041 097a 1241 123e 3541
00000140: 2545 1841 6da0 3541 30f9 7b41 8c0c 4b41
00000150: bee5 2641 62ed f940 a141 5b41 2094 e040
00000160: e486 5641 2bf3 7241 062e 3341 2339 1e41
00000170: 7974 7941 ecb1 3c41 904d 4b41 ebd1 2a41
00000180: a59f 3d41 7e8c 2941 04c7 2941 4c63 2841
00000190: 21da 3641 8963 0e41 3728 3841 0e0f 3641
000001a0: d0a3 3041 82e4 1e41 3d79 6241 ceba 1041
000001b0: df18 3641 ba71 0a41 baae 3441 fbcf 2841
000001c0: df75 3b41 2148 3a41 c076 6c41 7620 2041
000001d0: d560 2141 d0dc 2a41 dd54 2141 fac4 3f41
000001e0: 9116 0841 b3e5 3441 3cc4 2b41 d357 1b41
000001f0: 45c3 2541 0dd9 0d41 d1b6 3b41 90c2 1b41
12.190132 11.174705 15.236463 9.663514 10.994388 8.676866 9.192829 12.683834
9.227669 10.595042 10.345419 8.116007 11.598323 10.91201 12.736001 14.633843
10.610085 10.941661 8.1787195 10.411676 11.39225 6.571547 8.164731 15.79068
10.829068 11.363404 11.25429 12.724087 8.066064 9.17376 11.196818 10.902377
9.849149 7.6247325 15.11983 10.568309 10.838114 9.240312 6.926879 15.384056
12.165668 8.469415 11.239689 10.449707 9.6061325 9.8610115 7.2540083 10.6595545
12.768427 12.8965025 6.730416 13.899873 8.734253 7.1169257 12.470255 9.410382
13.668155 8.340301 7.588361 11.000996 13.645097 16.56511 11.643756 6.2756705
8.85675 9.695478 8.989681 15.717171 9.237885 10.6404705 12.855734 11.774797
11.061601 10.225543 12.109271 9.100746 12.507594 11.027819 9.154794 11.327654
9.516881 11.351666 15.748337 12.690563 10.431089 7.8102274 13.703523 7.0180817
13.407932 15.184367 11.198736 9.888949 15.590936 11.793438 12.706436 10.6762495
11.851476 10.5968 10.611088 10.524242 11.428254 8.899301 11.509818 11.378675
11.039993 9.930788 14.154599 9.045607 11.381072 8.652765 11.292658 10.5507765
11.716277 11.64261 14.778992 10.007925 10.086141 10.678909 10.083219 11.98559
8.505509 11.306079 10.735409 9.708941 10.360173 8.865491 11.732133 9.735001

layer4.0.weight f4 [10, 128]
00000000: 1de5 d7be d4de 09be 8ba9 63be df22 903e
00000010: ff67 503e fd3d db3c 71e3 6e3e 378c ecbe
00000020: ca34 4d3e 6281 303e 6483 e93d f1bd fcbe
00000030: 200c c6be 8cef d9be c35b a0be 5787 fcbe
00000040: e45c 13bf 9f0a 453e 1569 1fbf 0781 2dbf
00000050: 6bbd 1f3e 1c31 1bbf 4dea 3b3e 3d84 9fbe
00000060: a40f 7b3e d33f 8b3e 8402 f43d 2b45 09be
00000070: 6b42 1e3e 84fa 7ebe fb6d 45be 6121 e0be
00000080: 3432 293e fc4a 363e 284a a0be 1108 b1be
00000090: df98 073e 9b2b babe b219 e03d 1464 9c3d
000000a0: a1dc 103e 1031 193e 44aa 25be a47f e2be
000000b0: f12a 95be 74bc 30bf f2a8 c8be 2bee 7b3e
000000c0: 608e 2c3e bd38 16bf 2c15 0b3e 100c 68be
000000d0: f608 f5be 62ca 27bf e684 0ebe 002d aebe
000000e0: c0e2 043e e3bb 373e cdc9 0cbf 3520 e1be
000000f0: 3081 b2be b687 c33d 67c1 9b3e b907 4fbe
00000100: ff4e 003e 257d 983d f259 843e 5d04 95be
00000110: f8b3 a7bd 7094 05bf e718 913e 5de3 eebe
00000120: e603 bdbe 2f80 03bf 8bca e6be 2897 fcbe
00000130: 020e 8e3e a1e9 50be 3441 503e 9f62 e5bd
00000140: e691 c73d de04 343e 24d1 10bf 9d2c 03bf
00000150: 1aaa e8be be16 e23d e98d 3c3e aa55 083e
00000160: dfeb ae3c f3de 2dbf 3783 2abf a50b 023e
00000170: ab0b 28bf b13e 8b3e 2d21 85bd 6f43 dabe
00000180: edc6 2d3e 840a d9be 3290 0f3e dfbb 113e
00000190: f40b f8be 5670 c4be 6ccd 543e bd36 a3be
000001a0: 6cfb 1dbe 4353 d5be ccbf 4e3e 5af1 6d3e
000001b0: 918d 7f3e c19d a3be 32d9 343e ff58 03bf
000001c0: 02c6 08bf f6b2 09bf 4772 01bf c6e6 883e
000001d0: 7f16 c6be 29f7 01be 12c7 2bbe 6ee0 ecbe
000001e0: 8732 f5be ac42 5f3e c2d5 10bf 7d4a c3be
000001f0: fbe7 543e 2e86 4f3e ff94 26bf f5b2 23be
00000200: e850 633e 39ed 1d3e 8fd3 efbe b602 7c3e
00000210: 51f9 4bbf 5cac efbe 68e0 093e a021 4c3d
00000220: 37f8 c4bb c022 dabe 7447 bebd 62e5 e7be
00000230: 2937 59be 54e8 b2be aff8 613e 2e58 e4be
00000240: eb08 febe b958 903e 8123 ce3d 81c8 7f3e
00000250: 43c9 a8be f536 1b3e a584 20bf f541 a6bd
00000260: f084 833e 06c3 6b3e d1d8 e6be 48e4 1dbe
00000270: 3920 323e baf9 4c3e 6d4f 02bf 42b2 8e3d
00000280: 7e55 9bbe 8887 14bf 6dc8 bf3d 5d6e 2abf
00000290: 3856 443e ad36 5bbe e77e a0be c86d 323e
000002a0: 51a3 0c3e 1120 f73d d0c6 42bf a631 093e
000002b0: 8d53 b13d 4a39 2f3e 813e 633e 83c2 163e
000002c0: 87a3 17bf 496f 3f3e 28ac 21bf 0085 463e
000002d0: 8c5e 233e 665a 5a3e 4d5d 22bf 866d bbbe
000002e0: 7759 34bf 3de7 203e e907 a4be 591a 1cbf
000002f0: 26bb 1abf 13b7 873e 1378 263e 143e 3f3e
00000300: 2c69 65bd 23b9 90bd 5627 3b3e c8ec 353e
00000310: 83f0 0cbf 6473 6fbe d64a ad3d 612e f9be
00000320: f2fa 08be fc9e 7b3e 6f6f e7be e3ca 473e
00000330: a2d0 87be dc57 783e 4f0a d9be df76 783e
00000340: fc8d 2a3e e3e9 563e 4bf9 2f3e 631a c5be
00000350: eaf3 12bf f7ea f0be d29e 1bbf b77e 8ebe
00000360: aafa c53d f8b6 c5be 3cf2 6abe 6026 29bf
00000370: d889 a9be 62fe 79be 43b5 4c3e be36 723e
00000380: 5d09 37bf 3cca 193e 1896 6a3e 2aca 86be
00000390: edb2 b0be fce9 713e 44eb e8be 0c93 0fbf
000003a0: bee7 2ebf 5599 3bbe 6b08 983d ef33 06bf
000003b0: b983 723e 1cf8 203e 3ebb 94be 7383 773e
000003c0: ed2e 7a3e 0675 14be 1b24 6dbe e512 73be
000003d0: c609 583e 656a f5be 3e00 8fbe 3916 12be
000003e0: 5e22 273e 5a6d 373e 4ad4 493e e405 7a3e
000003f0: 55ad 24bf 313b 233e f16a c0be cc90 4a3e
-0.42166987 -0.13463908 -0.22232644 0.28151605 0.20352171 0.026762957 0.2332895 -0.46200725
0.20039669 0.17236856 0.11402014 -0.49363664 -0.38681126 -0.42565572 -0.3132001 -0.49322006
-0.57563615 0.19242333 -0.6226972 -0.67775005 0.15599601 -0.6062181 0.18351097 -0.31155577
0.24517685 0.27197132 0.11914542 -0.13405292 0.15455024 -0.24900252 -0.19280235 -0.43775466
0.16523057 0.17802042 -0.31306577 -0.34576467 0.1324191 -0.36361393 0.10942401 0.07636276
0.14146663 0.14960122 -0.16178232 -0.44238007 -0.29134324 -0.69037557 -0.39191395 0.24602573
0.16851187 -0.58680326 0.13582295 -0.22660851 -0.478584 -0.65543187 -0.13917884 -0.34018707
0.12977123 0.17942767 -0.54995424 -0.43969885 -0.34864187 0.09547369 0.30420992 -0.2021779
0.12530135 0.074457444 0.25849873 -0.2910489 -0.08188623 -0.5217962 0.2833931 -0.4665784
-0.36917037 -0.5136747 -0.45076403 -0.49334073 0.27745062 -0.20401622 0.20337373 -0.11200451
0.09744625 0.17579982 -0.56569123 -0.5123995 -0.45442277 0.11039494 0.1841351 0.13313928
0.021352706 -0.6791832 -0.6660647 0.12699755 -0.65642804 0.27196267 -0.065004684 -0.42629573
0.16970415 -0.42390835 0.1401985 0.14231823 -0.4844662 -0.38366956 0.20781487 -0.318777
-0.15427941 -0.41665086 0.20190352 0.232366 0.24956347 -0.31956294 0.17660978 -0.5130767
-0.53427136 -0.537887 -0.50565 0.26738566 -0.38689038 -0.1269194 -0.16775158 -0.46264976
-0.47890112 0.21802777 -0.5657617 -0.38142768 0.20791619 0.20266029 -0.650711 -0.15986235
0.22198832 0.15422525 -0.46841094 0.24610409 -0.796773 -0.46811187 0.1346451 0.049836755
-0.006011035 -0.42604637 -0.09290972 -0.45292193 -0.21212448 -0.34942877 0.22067522 -0.44598526
-0.4961618 0.2819269 0.100653656 0.2497883 -0.3296605 0.15157683 -0.627024 -0.08118049
0.2568736 0.23023614 -0.45087293 -0.15419114 0.17395104 0.20017138 -0.50902444 0.06967594
-0.30338663 -0.58019304 0.093644 -0.6657465 0.19173515 -0.21407576 -0.3134682 0.1742469
0.13734175 0.12066663 -0.76084614 0.13397846 0.08658514 0.17111698 0.22191812 0.14722638
-0.592339 0.18694796 -0.63153315 0.19386673 0.15954036 0.21323547 -0.63423616 -0.36606997
-0.7044901 0.1571321 -0.32037285 -0.60977703 -0.60441816 0.26506862 0.16256742 0.18676025
-0.056008503 -0.07066562 0.18276724 0.17766106 -0.5505449 -0.23383862 0.084615394 -0.48668197
-0.13376978 0.24572366 -0.45202205 0.19510989 -0.26526362 0.24252266 -0.42390677 0.24264096
0.16655725 0.20987658 0.17184941 -0.38496694 -0.57403433 -0.47054264 -0.60789216 -0.2783105
0.09666951 -0.38616157 -0.22943968 -0.6607418 -0.3311298 -0.24413446 0.19991021 0.23653695
-0.7149866 0.15018553 0.22908819 -0.26326114 -0.3451151 0.23624414 -0.45491993 -0.5608375
-0.6832236 -0.1832021 0.074234806 -0.52422994 0.2368306 0.15719646 -0.29049104 0.24171238
0.24431963 -0.14497766 -0.23158304 -0.23737676 0.21097478 -0.47932735 -0.27929872 -0.1426629
0.16321704 0.17912808 0.19709888 0.2441631 -0.64326984 0.15940548 -0.3758159 0.19781798

layer4.0.bias f4 [10]
00000000: a8fb 7e3d f29f a03d 520c 0c3c 46f0 37bd
00000010: 05d4 fdbc 4e9e 64bd ca01 a0be 85d2 70bd
00000020: 0406 af3d 68a6 603e
0.062251717 0.07843007 0.008547859 -0.044906877 -0.030984888 -0.055815034 -0.31251365 -0.058794517
0.08546069 0.21938479
